classifier_digit99.pt (torch, 137311 bytes, 6 tensors)

conv1.weight f4 [16, 1, 5, 5]
00000000: 6fdc bd3d aeff 043e 85e8 86be c09f 413d
00000010: 16b4 e33d 8085 9b3d 78b6 ccba 7488 87be
00000020: c7ff 2bbe e9f3 6a3d e99e c23e 2466 df3b
00000030: c6a7 75be 3a09 e9bd 1880 263d 9b22 c83e
00000040: cf50 8c3e 17a3 7ebe 97aa d7be 35bd 43bc
00000050: c38c 6c3e e157 883e 84b2 94be 9044 81be
00000060: e005 0d3e 4fe1 c6bd 2af2 35bb 95ad 0d3e
00000070: 84b0 9b3d 3099 533e c543 0c3e 6990 753e
00000080: 2a4d a03d 3050 3f3e f673 893e 9a06 0f3e
00000090: d9e3 a33d c571 4cbc 8a02 913e d946 9d3d
000000a0: e377 f6bd bb82 ecbd fa29 97bd 8e80 023e
000000b0: e743 db3d ce0a 40be 55b1 d6be 31fb 97be
000000c0: 852d 97be b22f 3fbe d8a0 143d 8076 7bbc
000000d0: d882 733e 8579 2d3e 5a0f 8f3e 0f3a 563e
000000e0: f220 113e d231 8e3e 7c51 3f3e 86ae cdbd
000000f0: fb23 263e 3994 37be aaa2 19be 9db0 1fbe
00000100: a5bc 82be 6fa2 c0bd f519 bf3a ddc0 efbd
00000110: c139 57be cab9 303d 2d92 70be 56ea f9bd
00000120: 35ca 983c 5ce4 893d e492 2fbe 5f0a 80bd
00000130: f79e 0f3e 2799 fd3d 7244 de3d 9988 b53d
00000140: 02c0 1dbe a1d4 3b3e 4a62 b3bc 3abf 473e
00000150: a43e 1c3e f1f6 19bd 8064 963d ddd8 4c3e
00000160: 676b 19bd d455 3e3e a892 d8bc 6292 f1bc
00000170: 09eb 183e 4875 16bd dfbc debc 8aaa 7d3d
00000180: ede1 dd3d a097 863d a653 4abe e32c 323d
00000190: 4623 0cbe 3ea1 b3bd f646 ed3c bf3c b93d
000001a0: 9062 9e3e 4ed7 7ebd 0395 a5be 8b47 f1bb
000001b0: e71b a03e 4550 b93e ab1a 0abe 0e3f cfbe
000001c0: 10dc 1d3b 4987 ad3d 3089 793e 583c 583e
000001d0: 9715 14be 356f 84be fa76 c6bd dbc4 843e
000001e0: 995c 10bc 12d0 753d b709 53be d286 54bd
000001f0: be7b ed3b 9e43 ddbd f607 31be 2e29 04be
00000200: 8348 2a3e d6eb 133e b528 97be 1870 1cbe
00000210: f7a2 3e3e 62d4 233e 61de 993e 7a4c 49be
00000220: 0dba 90be 7252 4fbd 0137 9a3e 3011 36bc
00000230: 8edc 0bbe db7b 30be 5fbf 8c3b 5ac4 9d3e
00000240: 2af9 d63d 3d52 2cbe 4bca 17be 0417 12bc
00000250: 50af 863e c534 893c 97e5 b73d 328a 05be
00000260: 355a 1e3e 1f42 8cbd a2d6 92bc f75d 1fbe
00000270: acf0 2d3e 8c39 aa3e 3a80 1c3e 12fb 8a3e
00000280: 051d 00be 702a cebd 12eb edbc 8e10 703e
00000290: 0b76 0c3e e1ba 2dbe 5ec7 bfbd 869b 41be
000002a0: e013 24be 5f0f d63d b675 843e 8a49 83bb
000002b0: 79cf 77be fbea 1dbe 303e 9cbe d5ea 88be
000002c0: f633 303d a55d debc 2a81 5d3e 3082 b33c
000002d0: f14a 21be 983c 753d 24fe 36bd 3035 1e3e
000002e0: 70c2 463e 50c1 703c b18c 24be 683f 0f3e
000002f0: 6687 ca3d 83e6 1b3e 384b a6be f9d9 6f3d
00000300: 90cc 073e 0ac8 823d a213 8bbd 8185 a9be
00000310: 0ee3 6bbc 2065 b93d 398d f73d c08c ee3d
00000320: 6969 d3bc cf78 423e 33d1 693c c554 173d
00000330: df77 be3e c4f0 2ebe 1db0 813e 525b dd3c
00000340: ccee a63e 5ebe 1b3e 4e4b 87be 97f8 5dbe
00000350: 19b5 17be cd77 e1bd fcb3 4abe 9bd8 72be
00000360: 09df 83be e083 85be f290 58bc 0892 6a3d
00000370: cad5 ae3d 00a0 353e 94e2 c73d f84b 01bc
00000380: b666 d03c b1b2 16be 6675 0f3e 9faa bd3c
00000390: 20fa 13be a826 66be aa69 5c3b a4bb ad3d
000003a0: 8432 3b3e 85ec 3a3e 8b25 143e 728e e33d
000003b0: c970 263e 68da 55bd bd22 563d bcab 453e
000003c0: bace e6bd 42ff 123e 439d d3bc 1d0a 413e
000003d0: 6da9 4d3d 5baa 873d dc36 f7bc 9a98 b2bc
000003e0: d271 8f3d 2033 143e f54c 9ebe 3382 91be
000003f0: e5e6 ffbd a8fc 06be 81bd 2abd 16ec 77be
0.0927056 0.12988159 -0.26349273 0.04727149 0.11118333 0.075938225 -0.0015618345 -0.26471293
-0.1679679 0.057361517 0.38011864 0.006817596 -0.23989782 -0.11378713 0.040649503 0.39088902
0.27405402 -0.24866901 -0.42122337 -0.011946966 0.23100571 0.26629546 -0.29042447 -0.25247622
0.13771772 -0.09710943 -0.002776275 0.13835748 0.07602027 0.20663905 0.13697727 0.2398087
0.07827218 0.18682933 0.26846284 0.13967362 0.08002443 -0.012478297 0.2832225 0.07679529
-0.12034585 -0.11548372 -0.07381053 0.12744352 0.10706311 -0.18754122 -0.4193217 -0.2968383
-0.29526916 -0.18670538 0.036286205 -0.015348077 0.23780382 0.16940887 0.279414 0.20920585
0.14172724 0.27772385 0.18683428 -0.10043053 0.16224663 -0.17927636 -0.15003458 -0.15594716
-0.2553455 -0.09405982 0.0014579879 -0.117067076 -0.21018125 0.043145932 -0.23493262 -0.12202899
0.018651107 0.06733009 -0.17145878 -0.06251978 0.14025484 0.12382727 0.10852899 0.088639446
-0.15405276 0.1834283 -0.021897454 0.19506541 0.1525827 -0.037589017 0.073433876 0.20004602
-0.037455942 0.18587428 -0.026437119 -0.029488746 0.14933409 -0.036732942 -0.02718967 0.061930217
0.108341075 0.06571889 -0.19758472 0.04349984 -0.13685331 -0.08770989 0.0289645 0.090447895
0.30934572 -0.06221705 -0.3234025 -0.007363265 0.31271288 0.36194053 -0.13486736 -0.40477794
0.0024087466 0.08473069 0.24368739 0.2111677 -0.14461361 -0.25866094 -0.09690662 0.2593144
-0.0088111395 0.060012884 -0.20609175 -0.051886387 0.0072474172 -0.108039126 -0.17288193 -0.12906334
0.16629224 0.14445433 -0.29523245 -0.15277135 0.18616854 0.15998986 0.30052474 -0.1965808
-0.28266945 -0.050615735 0.3012009 -0.011112496 -0.13658354 -0.17234747 0.004295274 0.30813867
0.10496743 -0.16828246 -0.14823262 -0.00891662 0.26305628 0.016748795 0.08979338 -0.13040999
0.15464099 -0.06848549 -0.01792461 -0.15563188 0.1698634 0.3324703 0.1528329 0.27144676
-0.1251107 -0.10066688 -0.029042754 0.23443815 0.13716905 -0.1696582 -0.09364198 -0.18906984
-0.16023207 0.104521506 0.25871056 -0.0040065693 -0.24200238 -0.15421669 -0.30516195 -0.26741663
0.043018304 -0.027144263 0.21631303 0.021912664 -0.15751244 0.05987224 -0.04467596 0.15449977
0.1941011 0.014694527 -0.16069295 0.13989031 0.098891065 0.15224652 -0.32479262 0.058557484
0.13261628 0.06385811 -0.06790854 -0.33109668 -0.014397396 0.09052491 0.12087483 0.1164794
-0.0258071 0.18991397 0.014271068 0.036946077 0.3720083 -0.17084032 0.25329676 0.027021084
0.32604063 0.15209338 -0.2642464 -0.21676861 -0.14815177 -0.11009178 -0.19795221 -0.23715441
-0.257561 -0.26077175 -0.013218151 0.057268173 0.08536871 0.17736816 0.09760013 -0.0078916475
0.025439601 -0.14716603 0.14009628 0.023152648 -0.14450884 -0.22475684 0.0033632317 0.08483055
0.18280989 0.18254288 0.14467447 0.11111154 0.16253962 -0.05221024 0.052279223 0.19303793
-0.11269899 0.14355186 -0.025831824 0.18851514 0.050210405 0.066242896 -0.030177526 -0.021801282
0.070041314 0.14472628 -0.3091809 -0.28419647 -0.124952115 -0.13182318 -0.04168463 -0.24211153

conv1.bias f4 [16]
00000000: 4e16 bd3d 8144 b3bc 4fb9 803d 5853 1bbd
00000010: 923a 113e 9c01 e83d 058d b5bb 5b3e 21be
00000020: 94a2 1b3e 09bb 93be 2e9d 203e 60fe 553d
00000030: d7e8 873e 36ac 963d 0b52 2c3d 48e0 4d3e
0.0923277 -0.021883251 0.06285345 -0.03792128 0.14182499 0.11328432 -0.0055404925 -0.15746443
0.15198737 -0.28853634 0.1568496 0.052244544 0.2654483 0.073570654 0.04207043 0.20105088

conv2.weight f4 [32, 16, 5, 5]
00000000: b941 c8bd f8c4 89bd 3c74 933c 6c72 f63d
00000010: d749 c83c 58a4 9b3b 88bf 02be 455c 043d
00000020: ac3b d83d 8d81 603e 7716 61bd 0d54 04be
00000030: cc1d 933d f9fa 183e ed59 2b3e 58f7 a53d
00000040: 3d12 13be 4483 303e 74c2 1b3e 1093 fc3d
00000050: 7c00 513d 3c89 87bd f65a 033e 58db 343e
00000060: 1b7c 6b3d 8a99 c03d c7cc 863c ba52 84bd
00000070: 4a76 54bc 8d4f e93c d21d 91bc 36cc d2bb
00000080: 5839 e7bd fe0d 0f3d e542 863d 955e e73c
00000090: 9a9d d8bc 86d4 69bd deae 23bc 7a65 a33d
000000a0: 5a85 9f3d 0525 563d 5b4c 9fbd ac0c 0abd
000000b0: ff6f db3d af2e d93d d407 8e3d 11fb 293c
000000c0: 547c 4abb cc72 3e3d c37f 3bbc f6c0 96bd
000000d0: 4ed1 a3bd f259 9b3b 566e 5a3d 5fb0 e9bc
000000e0: cd9a d8bd 3ced 2cbe 93d5 4fbd 8b64 8abc
000000f0: 9ce8 76bd d173 84be 0fda 5fbe 1412 a4bd
00000100: 7485 70bd 0dd7 7bbd f0ed cbbc 49a1 3e3b
00000110: b033 103c 7ce9 78bb cc2b a63d c449 1e3e
00000120: 9c5c be3d 0e33 b2bd c939 33bd fd55 9c3d
00000130: 4c36 423d d940 c23a f9ef 3f3d cf0e b63d
00000140: 4840 953d 70e5 663d d2d3 72bc 0dbc af3d
00000150: 96a7 7e3d 4868 813c c1c2 1f3c 4b31 e23c
00000160: 0a27 7f3d b697 c0bb 54ef d43c aa55 ccbc
00000170: 990a d53c b9a2 233c 0ab0 c5bc ccbd 913b
00000180: 359d 383b f8ec 18bd 7579 a4bd 043a e0bb
00000190: cdae 16be dd89 17be 7011 633d 182f 3f3d
000001a0: 8427 983d 9f52 6bbd 2524 00be 6aa0 07bd
000001b0: 813d 173e 49ab 0e3e 9f80 d1bd 007f d3bc
000001c0: d3c6 12bd 73b6 2a3e 860c 5c3e c878 963c
000001d0: 5551 5a3d ddf9 58be e083 bc3d 95ef 843e
000001e0: 45c6 433e c955 b43d eb89 16be 8d0f 6f3d
000001f0: fe57 403e f70e 23be 31df dfbd 6a13 a8bd
00000200: 44c9 e03d 01dd f63d d59b 88bd e0cb c039
00000210: a073 25bd db1a cb3d 3653 0c3e 1efb 87bd
00000220: 5a5e 863c 5717 5dbe 5a56 033e 3d51 3f3e
00000230: 0988 523d afb4 0b3e decc 63be e7a2 033d
00000240: 2296 893e b0dd 9b3d fd86 1b3d 07e5 15be
00000250: 300d 223e 09f1 5f3e 3b70 15bc 10fa 2cbe
00000260: c351 debd 463a c1bb 9d64 e5bd 464c 22ba
00000270: fe1f 7dbe 218b 56be 4d68 8bbd 46a1 72bd
00000280: c74f 02be 23c4 00be 5617 35be 4347 23be
00000290: 2f86 11be 50ad 293d de65 673d 1b58 23be
000002a0: 6d9f 8ebe 2aa6 9b3c 591a 183e 4588 983d
000002b0: 2608 06be ddf9 39be 2381 28bd 027c a9bc
000002c0: 8cd9 c1bc d76f f33b 1c13 ac3d bbbe e33d
000002d0: d1a6 8fbb c8e7 753d cdf6 1bba ce99 f43c
000002e0: 623d 213e 12ce 81bd 5d50 ec3b bd72 29bd
000002f0: 86eb ebbc 68da de3d 483c 863d 5795 4e3d
00000300: e718 cabd ca5a b6bc 3762 093e 88d9 e9ba
00000310: 5068 8f3d 0b20 82bd 9c2d 97bd e11d 0f3e
00000320: c520 a3bd 1d2e bbbd b981 88bd 5071 37bd
00000330: 76dc 48bb d753 d1bd de2e aebd ea39 39be
00000340: 4464 a3bd c265 843d 85a3 a4bd a9c8 bcbd
00000350: 742c 9bbe f227 45bd e973 023e f263 183d
00000360: ed01 c5bc bfc9 03be dcee dabd 821b 2c3e
00000370: f9bc 5b3e 105a bc3d 9913 81bd 9c1a 573d
00000380: 0ef5 313e d271 503d 8ebf 193d 8d42 203d
00000390: 49a3 7d3d e148 523d 49b6 8a3d 6099 143c
000003a0: 3c2c 533d ed99 443d 9921 1d3d 3820 153d
000003b0: bedf 563d 8c27 bcbc 35d0 3fbc 6af1 b0bc
000003c0: 7461 003d 22be 2fbc 216c 08bb 817f afbd
000003d0: 9305 95bd efbe 14bc 96c0 8bbd 32d1 a5bd
000003e0: 2e56 c2bd 140a 26bd 59b4 31be 4ddf 25be
000003f0: 79c1 ecbd b527 a5be ff75 c5be ba75 9dbd
-0.097781606 -0.06727022 0.01799976 0.12033543 0.024449272 0.004749816 -0.12768376 0.032314558
0.105582565 0.2192442 -0.054953065 -0.12922688 0.07183418 0.14939488 0.16733523 0.08103818
-0.14362426 0.17237574 0.15210897 0.123327374 0.051025853 -0.06617972 0.12827668 0.17661798
0.057491403 0.09404285 0.016455067 -0.06461091 -0.012967655 0.028480316 -0.017714415 -0.0064330352
-0.11290234 0.034925453 0.06555728 0.028243342 -0.026442338 -0.057087444 -0.009990422 0.079783395
0.07789107 0.0522814 -0.077782355 -0.03370349 0.10714721 0.10604607 0.06935087 0.0103748
-0.003089686 0.046496198 -0.011444035 -0.07361023 -0.07998906 0.004740947 0.05332788 -0.028526483
-0.10576401 -0.16887373 -0.05074079 -0.016893646 -0.060280427 -0.2586961 -0.21860527 -0.08011261
-0.05872102 -0.061484385 -0.02489373 0.0029087833 0.008801386 -0.0037980964 0.08113822 0.15457827
0.092950076 -0.08701144 -0.04375628 0.076335885 0.047415063 0.0014820351 0.046859715 0.08889543
0.07287651 0.056371152 -0.01482101 0.0858079 0.06217154 0.015796795 0.009751023 0.027611395
0.06229309 -0.0058774604 0.025993027 -0.024943192 0.02600603 0.009987527 -0.024131794 0.0044476744
0.0028169875 -0.037335366 -0.080309786 -0.0068428535 -0.14715119 -0.14798684 0.05543655 0.04667577
0.07429412 -0.05745184 -0.12513788 -0.033111967 0.14769556 0.13932528 -0.10229611 -0.025817394
-0.035834145 0.16671161 0.21489152 0.01836814 0.05330022 -0.21189065 0.09204841 0.25964037
0.19118603 0.08805425 -0.14701049 0.05836444 0.18783566 -0.15923677 -0.10931242 -0.08206828
0.10975888 0.12053872 -0.066703476 0.00036772992 -0.04039347 0.09917232 0.13703617 -0.06639694
0.016402412 -0.21590935 0.1282591 0.18683334 0.051399264 0.13643144 -0.2224612 0.032137778
0.26872355 0.07610643 0.03797053 -0.14638148 0.15825343 0.21869291 -0.009120996 -0.16892266
-0.108554386 -0.0058968393 -0.11200831 -0.0006191175 -0.24719235 -0.20951511 -0.06807003 -0.059235834
-0.12725745 -0.1257482 -0.17684683 -0.15945153 -0.14211343 0.04142505 0.056493632 -0.15951578
-0.27856007 0.019000132 0.14853801 0.07447866 -0.13089046 -0.18161722 -0.04113878 -0.020689014
-0.023663305 0.007429104 0.08402082 0.11120363 -0.0043838997 0.060035497 -0.0005949557 0.029858496
0.15746072 -0.06338133 0.0072117285 -0.04136919 -0.02879883 0.108815014 0.065544665 0.05043539
-0.09868031 -0.022260088 0.13416372 -0.0017841319 0.07002318 -0.06353768 -0.07381746 0.13976242
-0.07965235 -0.09139655 -0.06665368 -0.044785798 -0.0030648983 -0.10221069 -0.08505033 -0.18088499
-0.079781085 0.06464721 -0.080390014 -0.092179604 -0.30307353 -0.048133798 0.12739529 0.03720469
-0.02404877 -0.12869929 -0.1069009 0.16807368 0.21458806 0.091968656 -0.06302566 0.05251561
0.17378637 0.050889798 0.037536196 0.039125968 0.0619233 0.051339034 0.067730494 0.009069771
0.051555857 0.047998358 0.03836212 0.03640768 0.05245947 -0.022968076 -0.011707355 -0.02159949
0.03134294 -0.010726484 -0.0020816403 -0.08569241 -0.07276454 -0.009078725 -0.06823842 -0.080965415
-0.09489094 -0.040536955 -0.17353953 -0.16198464 -0.115603395 -0.32256857 -0.38566586 -0.0768847

conv2.bias f4 [32]
00000000: 4f0f a13b 8e40 eebc 8c3c 3ebd 9f2c 35bd
00000010: c9ce cfbc fdf9 793b f07f b0bb 776a e03c
00000020: 69a0 5ebd 60fa 9dbd 1256 bfba 0119 cd3a
00000030: 7ef3 89bc 4b50 29bd d620 19bd 40d3 2fbd
00000040: c4ae 76bc f48c bc3b fb0d cc3c 84ea debc
00000050: 25e6 a73c ef98 03bd 45ab 0cbd 8bd1 77bb
00000060: 3628 73bd 0714 14bd 1489 6dbc 6aa3 fbbc
00000070: c600 03bd 70a6 17bd 5e44 b3bd a553 adbc
0.004915155 -0.029083516 -0.04644446 -0.044232007 -0.025367158 0.003814339 -0.005386345 0.027394516
-0.054352198 -0.07713771 -0.0014597795 0.001564771 -0.016839739 -0.04133634 -0.03738483 -0.042926073
-0.015056316 0.0057541076 0.02490901 -0.027211435 0.020495484 -0.03212827 -0.034343023 -0.0037814106
-0.05936452 -0.036151912 -0.014498014 -0.03071757 -0.03198316 -0.03702396 -0.087532744 -0.021158049

fc.weight f4 [10, 2048]
00000000: 5a8b 0ebd 73f8 663b 2c31 5ebc c507 49bd
00000010: af86 d9bc 0d66 903c 0fba 1d3c cdd1 e63b
00000020: aea9 f8bc 3b67 bf3c 18a6 fc3b 9ddc 183d
00000030: 981b bbbc 254f f2bc f16b 13bd 6e93 f2bc
00000040: 2f00 bd3c cb41 803d a4b3 293d 5fb8 0e3c
00000050: 468a a43d 4438 d63d 04e7 2bbc 1cc1 05bd
00000060: 5712 773d cfa5 2a3d b5e9 5c3d f648 3fbe
00000070: 2445 083e 61af aa3d 9779 18bc 6322 ecbc
00000080: bbd8 853d 8c5b 113d e0bb 533d 53e0 03be
00000090: 34b8 853d 27ed 183d f38f 0dbd cd85 1fbd
000000a0: 02a0 dcbb 1860 243d fca0 323d 700d 04bd
000000b0: 0e2a f73c 008d f93b 9d14 82bd d102 6bbd
000000c0: 5273 9cbd e09a 1ebd 1826 9e3c db4d 77bd
000000d0: d137 e2bd fdb7 64bd c56a c9bc 8e94 9cbc
000000e0: 056e 8cbc 2184 69bd 7bb2 d1bc 07d2 6dbd
000000f0: 05e9 50bd 4fbe edbc 79a9 40bc 6bf4 1dbd
00000100: 0f9d 89bc c76b 45bd 3912 3fbc 4f04 a93c
00000110: e2be 86bc 1920 7abc 286c 9ebc 87b4 8a3c
00000120: 24fe 7dbc 9fe5 dbbc 2d76 933b 1296 643c
00000130: 5859 4ebc 713e 863c 90aa 173b f820 1bbc
00000140: 9712 86ba bdf8 2ebc d8d3 a8bc 050c ba3b
00000150: 3cf2 83bc 280f c1bc a399 9c3c cd67 da3b
00000160: 55bb 323c 5047 233c 14c3 99bb 5441 9f3b
00000170: 0635 1cbc ae0a dcbb daa6 773c 247d 65bb
00000180: 4c4b 823a ba10 acbc 6514 063a 9a62 883c
00000190: f308 053c 5bfa 5b3b 3fed 903c 4758 bc3c
000001a0: 9385 abba e95e 2bbb 1672 e13c 5e62 773c
000001b0: 08ad bebc 3680 623c 9c89 9dbc 7cbc 62ba
000001c0: 4cd2 c53b a271 47bb be06 62bc 9a67 9d3c
000001d0: b70b babc 8d15 b7ba e0d9 53ba 1b0c 8cbc
000001e0: d9ba 49bc 57c4 953c ae3b ecbb be2d 533c
000001f0: a035 583a 6e6e 6f3c 72fa 773c 2ca2 d23a
00000200: a018 043b 50bb d8bc c30c 3dbc bfbf 073d
00000210: e787 3b3c 4c52 b43c 37c0 733c 5f46 25bc
00000220: c3a6 4abc c2f7 b43c 170c e73c acd0 0b3d
00000230: bd98 8dbb a763 943b 200b 1b3c 5bc4 bc3c
00000240: 7b42 ca3c 75bf 4a3c 4e66 903c 4a5b ce3c
00000250: c8c4 95bc 255b a33a d3e2 52bc 2430 023d
00000260: 9eb0 063c 5489 f93c f908 a6bb 9424 07bb
00000270: 91fd ff3c 7db9 263d 298c 473c ac9f c33b
00000280: 64af 2c3c beaf d53c 9de2 91ba dd38 a73b
00000290: f33c 073d d893 eb3c 04e7 cb3c 5f52 253a
000002a0: bb5e c93c e924 963c 26d4 8c3b d527 383c
000002b0: d825 533a ef84 f13b 3709 12bc ab35 d73b
000002c0: 2565 c53c 3b28 153d a547 703c 42d6 f3bb
000002d0: 4e7f fcbb 94b6 a53c 6699 783c 833a e53c
000002e0: fd70 8e3b e306 953c fb1e ed3c ef2e 85bc
000002f0: ebfa fdbb d692 d83c dc08 e03b c9aa 043c
00000300: faf7 233c 2338 a5bc 7675 9b3c 5c15 a1bc
00000310: f8ac cfbb 338f d5bc e639 c6bc 928d 2abc
00000320: 767e ef3b 752a 8aba 8dd9 49bb dd39 ebbb
00000330: c7ab af3b 8ec5 ea3b 4f41 9bbc 7a06 993b
00000340: 06a7 bdbc 5f98 3a3c ebca 67bc 8b59 503c
00000350: 8b40 a9bc 05be 48bb 67f6 89bc e8eb 9f3c
00000360: 610f 80bc 8412 babb 0788 d8bc 3ac8 b43c
00000370: c11a 7e3c 4bb7 65bc 768e 023b ab9e fd3a
00000380: 01f3 d0bc 27e2 493b 833c 81bc 4a13 c33a
00000390: b543 923b aa90 e4bc 2b9e 593c 242c a7bb
000003a0: 5816 bbbc 055c 9cbc b2f5 a2bc f8bd 76bc
000003b0: 436b 723c 1f25 27bc f6d8 efbb 4c99 513c
000003c0: d228 f83b b2a9 5a3c 2c09 a53b d14d 7abc
000003d0: ea72 6cbc eed3 b13b beff f8ba 4b27 afbc
000003e0: f2d8 a73b dc55 babc 41f3 393c d254 b7bc
000003f0: 3fc9 39bb 26bf 99bc 8571 c23b 8654 913c
-0.034800865 0.0035243302 -0.013561528 -0.049079675 -0.02655348 0.017626787 0.009626879 0.007044053
-0.030354347 0.023364654 0.0077102296 0.03731977 -0.022840306 -0.029578755 -0.035991613 -0.029611316
0.023071377 0.06262549 0.041431084 0.00871095 0.08034186 0.104599506 -0.01049209 -0.032654867
0.060320225 0.041662034 0.053933818 -0.18680176 0.13307625 0.08334232 -0.009306333 -0.02882499
0.06535479 0.035487697 0.051692843 -0.12878542 0.065292746 0.03733554 -0.03456111 -0.03894596
-0.0067329416 0.040130705 0.043610558 -0.032239377 0.03017142 0.0076156855 -0.06351588 -0.057375733
-0.07639183 -0.03872192 0.019305274 -0.060376983 -0.110458024 -0.055839527 -0.024587044 -0.019113805
-0.017142305 -0.057010774 -0.025597801 -0.058061626 -0.051003475 -0.02902141 -0.011759155 -0.038563173
-0.016798524 -0.048198488 -0.011662059 0.020631937 -0.016448442 -0.015266442 -0.019338682 0.016931785
-0.015502486 -0.02684289 0.0045001716 0.013951795 -0.012594543 0.016387196 0.0023142435 -0.00946831
-0.0010228929 -0.010679421 -0.020608827 0.0056777024 -0.016106717 -0.023566797 0.019116228 0.006665206
0.010908921 0.009965733 -0.0046924446 0.0048600826 -0.009534126 -0.0067151403 0.015115464 -0.0035017217
0.0009940653 -0.02100407 0.00051147334 0.01664858 0.008119809 0.0033565972 0.017691253 0.022991313
-0.0013086073 -0.00261491 0.02752022 0.015099136 -0.023275867 0.013824513 -0.019230656 -0.0008649302
0.006037032 -0.003043272 -0.013795553 0.01921444 -0.022710664 -0.0013968215 -0.0008081477 -0.017095616
-0.012312614 0.018282099 -0.007209263 0.012889324 0.0008247737 0.014613731 0.015135394 0.001607006
0.002015628 -0.026456505 -0.011538687 0.033141848 0.011445976 0.022011898 0.014877371 -0.010087579
-0.012368861 0.022090796 0.028204007 0.034134552 -0.0043211863 0.004528481 0.009463102 0.023042848
0.024689903 0.0123747485 0.017626908 0.025190014 -0.01828231 0.0012463076 -0.012871462 0.03178419
0.00822082 0.030460991 -0.0050669876 -0.0020621167 0.03124884 0.04070424 0.012179413 0.005969962
0.010539863 0.026084777 -0.0011130158 0.005103214 0.03301711 0.02875702 0.02489043 0.0006306525
0.024581304 0.018328147 0.004297751 0.011239965 0.00080546504 0.0073705832 -0.00891333 0.006567677
0.024096081 0.03641532 0.014665519 -0.007441313 -0.0077056056 0.020228662 0.015173292 0.027982002
0.0043469653 0.01819176 0.028945437 -0.016257731 -0.007750859 0.026437204 0.0068369936 0.008097359
0.010007853 -0.02016837 0.018976908 -0.019663505 -0.006337758 -0.02606926 -0.02419753 -0.01040973
0.0073087765 -0.0010541218 -0.0030799836 -0.0071785287 0.0053610536 0.0071646636 -0.01895204 0.0046699615
-0.023150932 0.011388867 -0.0141475005 0.012716661 -0.02066066 -0.0030630839 -0.016841127 0.019521669
-0.015632333 -0.0056784768 -0.02643205 0.022068132 0.015509308 -0.014020751 0.001992134 0.0019349655
-0.025506498 0.0030804963 -0.015775925 0.0014883068 0.0044636377 -0.027901012 0.013282339 -0.0051016975
-0.022837803 -0.019086847 -0.019892547 -0.0150599405 0.014796081 -0.010201721 -0.007319565 0.0127928965
0.0075732255 0.013346123 0.0050364938 -0.015277342 -0.0144316945 0.0054268753 -0.0018997116 -0.021381041
0.0051222974 -0.022746019 0.0113495 -0.022379313 -0.0028348712 -0.018767904 0.0059339427 0.0177405

fc.bias f4 [10]
00000000: 5bc9 49bc f353 293c d97d 203c 0e73 cebb
00000010: 5dd8 633c 6a27 70bc a3b2 c0bc 0e71 0f39
00000020: 5be6 0bbb c078 83bc
-0.012316073 0.010334956 0.009795629 -0.0063003367 0.0139065655 -0.014657835 -0.02352268 0.00013679659
-0.002134702 -0.016048789
